PPO_myquick_trained/policy.pth (torch, 50940 bytes, 12 tensors)

log_std f4 [6]
000000 ce 3f a5 bf bc 9c b1 bf 34 76 d0 bf fa 8d b5 bf
       -1.2910097 -1.3875957 -1.6286073 -1.4183953
000010 ca 44 d0 bf 7e 08 80 bf
       -1.6270993 -1.0002592

mlp_extractor.policy_net.0.weight f4 [64, 20]
000000 39 a0 31 bd b9 58 87 bd ce 02 c3 3e d6 cd b9 bd
       -0.04336569 -0.066087194 0.38088077 -0.09072463
000010 a7 0e 4f be f9 e1 6c 3d 3e 24 c7 bd 61 5c a7 be
       -0.20220433 0.05783269 -0.097237095 -0.32687667
000020 7a 92 ff 3c 17 27 57 3b 1b 5f 88 be d1 1b de 3d
       0.031197775 0.0032829696 -0.2663506 0.10845149
000030 b1 f1 e4 3d 10 5e 32 3e fb 29 02 3f 58 49 c2 3d
       0.111789115 0.17418694 0.5084531 0.094866455
000040 22 fc 31 bd 46 23 86 3d 9d 24 7d 3e fb 36 95 bc
       -0.043453343 0.065496966 0.24720998 -0.018214693
000050 9b c8 9a be 49 ee 3b bd 80 59 c2 3c b2 27 0a 3d
       -0.30231175 -0.045881543 0.023724318 0.033729263
000060 25 62 4f be df 0e c2 3d a2 47 c8 3d 33 f1 ad 3d
       -0.20252283 0.09475493 0.09779288 0.08493271
000070 2d 8b 53 3e 9f be e2 bd 0f 36 e0 3d 59 c7 27 3c
       0.2065856 -0.11071514 0.10947811 0.010240399
000080 a6 e2 d9 bc 3b 60 09 3f ca 47 02 bd 60 55 b1 3e
       -0.026597332 0.5366246 -0.031806745 0.34635448
000090 f0 c1 67 bd 48 8a 1e 3d 44 ca da bd 69 d7 fb 3d
       -0.056581438 0.038706094 -0.1068311 0.122969456
0000a0 a4 0b 55 3e b8 ce 28 3e 00 eb 41 3d 9d 2e c7 3d
       0.20805222 0.16485107 0.047343254 0.09725688
0000b0 b7 66 c0 be 4d bc 39 be c2 d8 11 3e cf b4 ae 3e
       -0.37578365 -0.18138237 0.14242843 0.3412232
0000c0 a7 c7 65 3b 01 b5 2e 3e 09 a0 c4 bd 77 b2 ad 3e
       0.003506163 0.17061235 -0.09600837 0.3392522
0000d0 53 02 8c 3d 17 ff bd bc 81 bd 48 3d 5a d1 4c 3b
       0.06836381 -0.023192925 0.04900885 0.0031252713
0000e0 45 42 38 bd 97 0e 22 3e 0f 95 46 bd 50 5b c9 bd
       -0.044985075 0.15825878 -0.048481997 -0.098318696
0000f0 2f e9 d5 bb a7 ab 9c 3c a2 ef e5 bd b5 23 ec bd
       -0.006528042 0.019124819 -0.11227347 -0.11530248
000100 dc 6f 76 be eb d1 f8 3d 7a a3 59 bb f0 f7 5d bb
       -0.24066108 0.12149414 -0.0033209012 -0.0033869706
000110 56 9d 8b be e2 7d 88 be 22 f2 2c 3d e2 b1 4b be
       -0.27268475 -0.2665854 0.042223103 -0.19892076
000120 d9 f2 27 3c 72 db b3 3d e9 7b 26 bd 8f cc 22 bd
       0.0102507705 0.0878209 -0.040645514 -0.039745864
000130 a7 0b 38 bd f6 38 53 3e 42 ac 08 3e 18 08 00 3e
       -0.044932988 0.20627198 0.13346961 0.12503088
000140 8f 0f 4c 3e fc ba d4 3b e4 c5 5e 3e ef 97 83 3e
       0.1992781 0.006492017 0.21755177 0.25701854
000150 9a ba 12 3d 54 23 ef 3d a3 5e 8b bd e8 84 20 be
       0.03582249 0.1167666 -0.0680516 -0.156757
000160 c9 87 e7 bd 15 86 2d 3d 65 27 9f be e5 5f da be
       -0.11305196 0.0423642 -0.31084743 -0.42651287
000170 27 fe f5 bd a1 62 16 be 15 ca d9 bd cb 0b b0 3e
       -0.12011366 -0.14686061 -0.10634247 0.34383997
000180 b8 ed 1f 3d 37 03 a6 bd e2 22 fa 3c b0 93 87 bd
       0.039045066 -0.08106082 0.030534212 -0.06619966
000190 76 25 0b be 17 43 a0 3e 13 da b1 3d 3f ab ac bd
       -0.13588509 0.31301185 0.086841725 -0.084311
0001a0 cd 62 c2 3e b7 a0 12 3e 52 35 07 be 32 be d0 bd
       0.37966004 0.1431912 -0.13203934 -0.10192527
0001b0 f4 1e 43 bd 52 3f 4f 3e 60 e3 cc 3d a8 1a f6 bd
       -0.04763694 0.20238999 0.10004306 -0.12016803
0001c0 53 5c 04 3e e9 34 76 bd 3c b4 1d be 5d 1b b0 3e
       0.12925844 -0.060109053 -0.15400785 0.34395877
0001d0 c2 79 e2 3c e8 26 06 3e e4 4d d5 bd 8e 7c d4 bc
       0.02764595 0.13100779 -0.10415247 -0.025938299
0001e0 71 b6 b7 3d 6b 14 c9 bc 80 81 21 bd 56 05 53 3e
       0.08970345 -0.024545869 -0.03943014 0.20607504
0001f0 0b 46 c6 3c 3b 82 13 3d a1 a5 ae bd 2e 25 b1 bc
       0.024203321 0.03601287 -0.08527685 -0.021624174
000200 d2 1a a9 3d 42 67 6f be 21 d7 f4 bc f4 18 c9 be
       0.08257069 -0.23379233 -0.029887738 -0.3927685
000210 0c 08 d1 bc d1 3f 88 3e a8 75 da 3d 58 8f 60 be
       -0.025516532 0.26611188 0.106669724 -0.21929681
000220 46 6c 1a 3e 76 bb db 3c 69 20 48 3e 6e a2 6c 3e
       0.15080366 0.026822787 0.19543613 0.23108837
000230 a1 ec 93 3e a1 b9 4d 3e 03 37 65 3e 3f ec a6 be
       0.2889147 0.20090343 0.22384267 -0.32602116
000240 d5 bc 15 bd 78 a6 09 be 38 24 84 3e ed 64 ef 3d
       -0.036557037 -0.13442409 0.25808883 0.11689172
000250 44 24 26 bd 6e 8d 52 bd ce 38 f9 bd 3c a6 61 be
       -0.04056193 -0.05140441 -0.12169038 -0.2203607
000260 e1 05 89 bd bd 0d 97 3e 30 c0 e1 bd aa 79 14 3e
       -0.066905744 0.2950267 -0.11022985 0.14499536
000270 58 be 5a be b3 0d b1 be 2e 14 97 3d 67 99 0e 3e
       -0.21361673 -0.34580764 0.07376896 0.13925706
000280 05 81 d6 bc 1f 54 d5 3c 95 ab c9 3e 3b ff d9 3c
       -0.026184568 0.026041089 0.3938872 0.026610961
000290 a0 76 c5 bd 48 7b f5 3d 17 0c 02 3e 40 72 b3 3e
       -0.096417665 0.11986405 0.12699924 0.35048103
0002a0 70 4b 85 3e 7c ca 5b 3e 44 85 20 bd 9c 1e ce 3d
       0.26034117 0.2146396 -0.039189592 0.10064432
0002b0 b2 0a 71 3e 37 0c 07 3e 0e 26 f7 3d 31 46 ee bd
       0.23539236 0.13188253 0.12067805 -0.11634482
0002c0 59 ce 38 3e d3 68 30 3e 65 1b c1 3b 89 f7 8e bd
       0.18047465 0.17227487 0.0058931583 -0.06980807
0002d0 44 c5 f6 3d e5 d7 c0 3e d2 45 c7 bd 97 ba 4b be
       0.12049344 0.37664714 -0.09730114 -0.19895397
0002e0 36 86 8b bc ab 91 fc 3d 81 10 02 be 51 45 d0 bd
       -0.01703177 0.123324715 -0.12701608 -0.10169471
0002f0 4e 7e 36 be b0 86 2d 3e 4f 96 a6 bd 9b ef ce 3d
       -0.17821619 0.1694591 -0.08134138 0.10104295
000300 42 d6 42 3e 22 e8 72 bd 62 11 a8 bd b6 f8 b0 bd
       0.19027045 -0.05930341 -0.082064405 -0.08641188
000310 0f 05 1c be 7b c9 72 3d 5a 5a 07 3e d6 6f cc 3d
       -0.15236305 0.059274178 0.1321806 0.099822685
000320 a9 86 fb 3d 72 00 76 3e a8 3b 86 3e dc e6 89 3e
       0.12281544 0.24023607 0.2621739 0.26933944
000330 af c9 5f bd f2 26 6e be 76 3c bf 3d 98 01 29 3c
       -0.0546357 -0.23257044 0.09337704 0.010315321
000340 ef 3f cb bd 6d e5 e0 be f5 44 27 3d 4f 87 91 be
       -0.09924304 -0.43925038 0.040837247 -0.28423545
000350 23 5c 42 bc 73 c6 4d bd 56 14 ba 3d 8d 0a dc be
       -0.011862787 -0.050238084 0.0908591 -0.429768
000360 c1 44 f4 3c ee c2 5b be 17 af e8 3d 19 fe 43 bd
       0.02981794 -0.21461079 0.11361521 -0.04784975
000370 bd 99 13 be 66 73 64 bd de 96 bd 3b ef f4 1b 3e
       -0.14414115 -0.055774115 0.005785807 0.15230154
000380 96 d3 0c be c9 a8 58 3c b3 d0 6f 3c 3e 58 e4 be
       -0.13752589 0.013223835 0.01463716 -0.44598573
000390 5a 1c a0 3d 6e bd 2c be f0 b4 56 be 7a bb 1e be
       0.07817908 -0.16869137 -0.2096746 -0.15501204
0003a0 b4 56 24 3e e2 5b 8c be e3 1b e9 bc 80 48 1f be
       0.160487 -0.2741385 -0.02845568 -0.15555
0003b0 b2 59 41 be 52 36 a7 3e c8 c2 18 3d a3 36 fd bd
       -0.18881872 0.3265863 0.037295133 -0.12363937
0003c0 05 ea a9 3e e9 ed e8 be 9e b9 78 3e 0f d5 73 be
       0.33186355 -0.4549401 0.24289557 -0.23811744
0003d0 35 f3 04 3d 5f 4e e2 3d 6a e0 44 be f8 8a ae be
       0.032458503 0.11050104 -0.19226232 -0.340904
0003e0 3a fb ea 3d 2d 4b 72 3d d1 3d 91 bc 7b e2 0c 3e
       0.11473699 0.059153724 -0.017729672 0.1375827
0003f0 24 14 af bd 3a 49 d9 bc 69 ad ba bc c3 bf 5b be
       -0.085487634 -0.026524175 -0.022787767 -0.2145987

mlp_extractor.policy_net.0.bias f4 [64]
000000 06 ee 93 3d 04 17 af 3d 27 44 f8 bd 29 cd 99 3d
       0.07223134 0.08549312 -0.12122374 0.07509834
000010 0a bd 46 bc 92 9d f4 bb ca f0 3e 3c f3 d2 6e 3b
       -0.012130031 -0.007465073 0.011654088 0.0036441654
000020 14 66 c3 3b 4d 78 03 be 53 81 41 3b 66 f7 48 bb
       0.0059630964 -0.1283886 0.0029526546 -0.003066504
000030 b8 e7 fd 3c a0 78 62 3c 94 ec 7d 3d 27 5e cd 3d
       0.030994281 0.013822705 0.061993197 0.10027724
000040 43 f3 30 bd bb da c4 3e ac 37 54 3d a3 42 15 bd
       -0.043200742 0.38448128 0.051810905 -0.036440503
000050 ca 4b f9 bd e3 16 23 3d 7f ca 89 3d 66 01 22 3c
       -0.12172659 0.03981675 0.06728076 0.009888029
000060 a6 15 68 b9 28 4a c2 3c 6e 51 26 bc ae e6 05 bb
       -0.00022133309 0.023717001 -0.01015125 -0.0020431685
000070 36 a7 4e be b4 3c b8 bd 92 aa 12 bc 34 85 c0 3a
       -0.20180973 -0.08995953 -0.0089518 0.0014688135
000080 fd c6 9a 39 0d 87 4a 3b be 43 97 37 54 8d 33 bd
       0.00029521427 0.003090325 1.8032148e-05 -0.043835953
000090 72 d7 c5 ba 37 e0 23 ba a9 e8 11 bc 8d b6 a4 ba
       -0.0015094115 -0.0006251367 -0.008905568 -0.0012566611
0000a0 46 6d 31 3a 82 08 b2 3d a0 a4 d4 3d cd 1c 5c be
       0.0006768297 0.08693029 0.10382962 -0.21495362
0000b0 8c 74 b8 3c eb 6f 48 3d b4 fd aa 3d 30 62 b1 3c
       0.022516511 0.04893486 0.08349171 0.021653265
0000c0 b3 30 be 3b 5d 81 9e 3a 53 0e a9 3d a4 8b 18 bd
       0.0058041452 0.0012092997 0.08254685 -0.037242547
0000d0 c5 ee 00 3b cd 03 d6 bd c8 42 0c be ae b4 bb b8
       0.0019673568 -0.10449944 -0.1369735 -8.950509e-05
0000e0 7d 12 c9 3c 85 0a 6c be 4f 6e eb 39 13 3d 96 3d
       0.024544949 -0.23050888 0.0004490488 0.07335868
0000f0 c0 10 ee ba a4 48 a1 bc 6a 95 ef 3c e6 16 d2 3d
       -0.0018162951 -0.019687958 0.02924605 0.10258274

mlp_extractor.policy_net.2.weight f4 [64, 64]
000000 fe 19 b8 bd cf 5e a4 3d d9 82 ca bd 1c e7 47 3e
       -0.089893326 0.08025896 -0.098882385 0.19521755
000010 a9 33 cb 3d da 81 75 bd 5f cf da bd c3 8c 65 3e
       0.09921963 -0.05993829 -0.10684084 0.22416978
000020 b2 22 12 be b6 5e 12 3e 03 fd 49 3e bd 50 8f be
       -0.14271048 0.14293942 0.19725423 -0.27991286
000030 d8 c7 96 be 4c 0a a9 3d f1 51 64 3e 20 88 8f be
       -0.29449344 0.08253917 0.22296883 -0.28033543
000040 59 95 ac 3d 20 65 48 3d 5e 6b 2c be b6 17 17 3d
       0.08426923 0.048924565 -0.16837832 0.036887847
000050 41 01 87 3d cc 0f a1 3d 94 48 52 bb ba b1 95 3c
       0.06592036 0.07864341 -0.0032086717 0.018273223
000060 18 fd 49 3d 91 f4 3e bd 91 2a cb be 86 3c 24 be
       0.049313635 -0.046619955 -0.39680913 -0.16038713
000070 52 c5 91 be 66 0c 17 be 58 77 3d 3e 6a ad ca 3d
       -0.28470856 -0.14750823 0.18502557 0.09896357
000080 06 e7 2c 3d 40 a2 c4 3d 9b f5 5c 3e 03 fd ef bd
       0.04221251 0.09601259 0.21578066 -0.1171818
000090 12 31 62 be a8 45 b3 bd e8 d8 63 3e 3d 52 19 3e
       -0.22089031 -0.0875352 0.22250712 0.14972778
0000a0 e9 8c 66 bd 08 d7 55 be db 15 c7 3d 59 3a 92 bd
       -0.056286726 -0.20882809 0.097209655 -0.07140035
0000b0 87 39 6f 3e 60 e0 48 3c 09 cf e6 3d 06 82 41 bd
       0.23361789 0.012260526 0.112699576 -0.04724314
0000c0 92 dc 72 bd 58 4f b3 3e 3a c3 93 3e fb 9c 62 3d
       -0.059292383 0.35021472 0.28859884 0.05532549
0000d0 4b b1 c9 3e 8e f3 8e 3e 80 fe d6 be b2 82 ba 3d
       0.39393076 0.27920192 -0.41991043 0.091069594
0000e0 b1 11 cd be 85 a0 44 bc 8e 0a 00 3e 02 5e 93 bd
       -0.4005256 -0.012001161 0.12504026 -0.07195665
0000f0 18 ab 6e 3d f0 d2 a3 3d 19 0c 91 3e 1c cd ae bd
       0.058268636 0.079992175 0.28329542 -0.08535215
000100 55 af df 3d 1f 53 e1 3b 81 ca 83 bd 55 06 22 be
       0.10922114 0.006876364 -0.06435109 -0.15822728
000110 88 36 c3 3e 50 69 4e 3d f8 1d d9 be ad 96 71 3c
       0.38127542 0.050393403 -0.42405677 0.014745397
000120 a9 19 94 3d 10 fe 94 bd c4 0c 2d be 1d cb bb 3c
       0.07231457 -0.07275021 -0.16899401 0.022924
000130 0a 12 4e be 68 76 17 3e a2 25 63 bc 92 21 6b 3c
       -0.20124069 0.14791262 -0.013863953 0.0143512655
000140 56 ab ec be 0d e6 39 3e da d2 c4 3d 87 8e 9b be
       -0.4622447 0.18154164 0.09610529 -0.30382177
000150 69 0b 1f 3e 2b aa 06 3e 5b 8e 4a be 74 93 e7 3d
       0.15531696 0.13150851 -0.19780867 0.11307421
000160 4c 49 ba bd cf 14 45 be 5e 61 0e bd 27 0a 0c 3e
       -0.090960115 -0.19246219 -0.034760825 0.13675748
000170 3b 98 f5 3d 0b 39 86 be 02 90 5b 3d 8c 4c 22 3e
       0.11991926 -0.26215395 0.053604133 0.15849513
000180 55 e8 49 3e a6 5b 3e be 7c 85 f1 bc 60 40 82 be
       0.19717534 -0.18589649 -0.029482596 -0.2543974
000190 27 17 a4 3d b5 f1 89 be ea a7 92 3e 8a 9c 9e be
       0.080122285 -0.2694222 0.28643733 -0.30978805
0001a0 8e ce 52 be 88 e6 0a 3e c4 ff 25 3e 04 b1 ab bd
       -0.20586607 0.13564503 0.16210848 -0.083833724
0001b0 a4 f3 66 3d 5e 35 97 be 8e 86 bd bd 7b e4 04 3d
       0.056384698 -0.29532903 -0.0925418 0.03244446
0001c0 29 b4 44 3d 98 03 d4 bc e7 b9 88 be d4 2d 8e bd
       0.048023377 -0.02588062 -0.26704332 -0.06942335
0001d0 e7 11 3f 3e d5 a5 de bd 72 7f 82 be 13 5c 00 be
       0.18659173 -0.10871474 -0.25487858 -0.12535124
0001e0 33 a4 c5 3d da 4d 93 be 93 f8 cd bd ef 84 81 bc
       0.09650459 -0.28770334 -0.100571774 -0.015810458
0001f0 87 d6 c1 3d 44 94 91 bd 57 39 71 be f5 2f e2 bd
       0.09464746 -0.071083575 -0.2355703 -0.11044303
000200 b9 88 45 3e 95 fd 95 be 4f ab f3 bd 8e c9 98 3e
       0.19290437 -0.2929503 -0.11897909 0.29841274
000210 ad 8a 34 3e 48 c8 3e bc 99 f0 e8 bc a3 14 09 3e
       0.17631026 -0.01164443 -0.028435038 0.13386779
000220 4c 08 2a 3e b3 66 6b 3e a8 e3 b4 3d 33 61 71 3d
       0.16604728 0.22988395 0.088324845 0.058930587
000230 a8 25 f4 bd 71 6b 55 bd 27 4f 1a 3e 40 d4 b0 3e
       -0.11921245 -0.052104417 0.15069257 0.34536934
000240 a1 c9 9f 3e 1b 30 66 3e ba 66 45 3e 9a 98 f7 3d
       0.31208518 0.22479288 0.19277468 0.12089653
000250 db 0e ac bd b2 0a 89 3d f1 db 44 3e c1 01 60 bc
       -0.08401271 0.06691493 0.19224526 -0.013672293
000260 27 8e bc 3e 5c 38 f2 bd 4e ae 63 3c 45 c2 52 3e
       0.36827204 -0.11827156 0.013896538 0.2058192
000270 06 dd 69 be d3 f2 a2 be 10 3e 79 be aa ae 6a bc
       -0.2283822 -0.31825885 -0.24340081 -0.01432387
000280 05 a6 e1 3d 3f 75 ab ba bf aa 98 3e 97 00 af bc
       0.11017994 -0.0013081207 0.2981777 -0.021362586
000290 7d 5c 2a 3e 57 76 02 bb a0 49 a9 3e 1d e0 ad be
       0.16636844 -0.0019906962 0.33063984 -0.33960047
0002a0 fb 32 09 3e 4a 84 e2 3d 6e ba 5c bb 3c ac 11 be
       0.13398354 0.110603884 -0.0033680457 -0.14225858
0002b0 95 3a 13 be 70 f2 26 3e 84 ec 74 3d e1 f0 2f 3d
       -0.14377816 0.1630342 0.05979587 0.04295433
0002c0 64 3b 1a be 29 8c b6 3d a6 79 9b bd e7 7e 83 3d
       -0.15061718 0.08913452 -0.07591562 0.06420689
0002d0 3b 66 be bc fd 64 1b be ca 35 8e 3e d0 d9 8c bd
       -0.023242107 -0.15175243 0.27775413 -0.06877482
0002e0 b1 03 21 3c 5f 9a 07 3e cc e5 f3 be 65 d2 67 be
       0.00982754 0.13242482 -0.4763626 -0.22638853
0002f0 33 a2 c1 3d 54 a3 80 3c 7d 7c aa 3e 9a 72 7c be
       0.09454765 0.01570288 0.33298102 -0.24653092
000300 f1 47 fc 3d 17 17 b4 be f5 a7 cb 3d 4b ed 05 be
       0.12318409 -0.35173866 0.09944145 -0.13078801
000310 d4 2b ca bd c2 d3 52 3e ae e6 e1 bb 81 ce 7d be
       -0.09871641 0.20588592 -0.0068939542 -0.24785806
000320 03 8d ed bd 91 36 c0 3d 96 36 d3 3d f6 6b 83 be
       -0.115991615 0.09385408 0.10313146 -0.25668305
000330 ea e3 a9 be 97 4f 1a be 8d 32 cd 3a 1f 5d 3a 3e
       -0.33181697 -0.15069424 0.0015655324 0.18199585
000340 44 01 73 3d b3 bf 94 3e 95 0d 8f 3d cb 6b f4 3d
       0.05932738 0.29052505 0.069850124 0.119346224
000350 ff 3a 9b 3e c9 9b dd 3c 1d c2 2a be cc 36 1b 3e
       0.30318448 0.027051823 -0.16675611 0.15157622
000360 0f d3 1e 3e 2d 4a 53 bd a8 fd 0c be f7 bb 54 3e
       0.155102 -0.05158441 -0.13768637 0.20774828
000370 02 35 fd 3d fb d3 41 3e d1 17 48 be 53 34 68 bc
       0.12363626 0.1892852 -0.19540335 -0.014172631
000380 1d 76 6e 3d dc 95 a0 3e 43 15 5d bd f8 51 ad be
       0.05821811 0.31364334 -0.053975355 -0.338516
000390 94 e9 e6 3d 63 d3 4c 3d 57 42 6f be 7e 70 47 3d
       0.1127502 0.05000628 -0.2336515 0.048691265
0003a0 b9 d6 76 be 77 0f b6 3d bc 7c 78 be 6c b5 cb bd
       -0.24105348 0.088896684 -0.24266332 -0.09946713
0003b0 44 20 02 bd 4f 48 e7 3d 8f 35 8a bd 0d 9c b0 bc
       -0.031769052 0.11293089 -0.06748497 -0.021558786
0003c0 71 da fb 3d a9 ef 9a be 4d 42 0c 3e a4 09 b5 3e
       0.12297524 -0.3026097 0.13697167 0.35358918
0003d0 10 ff 0e be a2 fc 64 3e cf 68 72 3d 90 58 b7 3d
       -0.13964486 0.22361997 0.059181985 0.08952439
0003e0 c4 b6 7e be c2 61 92 3d 2c 14 f9 3d c7 28 68 3e
       -0.24874407 0.07147552 0.121620506 0.22671805
0003f0 ee 1f b8 3d b6 54 6d 3d 8f 43 80 3d cb 1b ae be
       0.08990465 0.057942115 0.06262886 -0.3400558

mlp_extractor.policy_net.2.bias f4 [64]
000000 1a 46 01 3d 25 b5 3b bc 3f a9 7b 3c 34 78 45 3c
       0.031560995 -0.011456762 0.015360176 0.012052584
000010 f0 fb 14 bd b2 76 ba bc 40 7a 68 bd bc 32 95 bc
       -0.03637308 -0.022761676 -0.05675721 -0.018212669
000020 96 c6 0f 3d 87 46 00 bc d3 c6 84 3c e3 b8 bc bc
       0.035101496 -0.007829315 0.016208088 -0.02303738
000030 dc 5b f9 3c 7e 0e 73 bc a0 08 79 3d 91 a7 26 bd
       0.03043931 -0.014834998 0.06079924 -0.040687148
000040 98 b6 05 bd 1d 1f bd bb fd 01 e9 3c 79 4a 24 bb
       -0.032644838 -0.0057715313 0.02844333 -0.0025068803
000050 39 10 cb bc 73 00 6d 3c d4 92 47 bc 1b e5 f9 bc
       -0.024788009 0.014465439 -0.012181003 -0.030504754
000060 88 7c 56 bc 3d b4 73 bd 24 2a cb bb e1 f1 15 bb
       -0.013091214 -0.05949806 -0.006200092 -0.0022879767
000070 9e 8a 8b 3c 6d af ec b9 34 16 ea 3c a6 e9 8d 3d
       0.017033871 -0.0004514413 0.02857504 0.069293305
000080 94 9c 0c bc e1 71 c0 3c 7b 00 72 3c 32 e7 cd 3c
       -0.008582253 0.023491802 0.014770622 0.025134657
000090 9a c3 f3 3c 30 32 7d 3b 9f 6b 85 3c 08 8e 86 bc
       0.029756356 0.003863465 0.01628667 -0.016425148
0000a0 32 ac d2 3b ca a6 72 bb 36 54 7c 3c b7 c8 15 3c
       0.0064292187 -0.0037025684 0.015400937 0.009142092
0000b0 0f f7 12 3b 9a 4c f5 bc ad 04 69 3b f4 d1 1c bc
       0.002242509 -0.029943753 0.0035555765 -0.009571541
0000c0 b2 c7 12 bd bd e9 b8 3b a8 86 b3 bc 43 e1 10 3d
       -0.035834976 0.005643098 -0.021914795 0.035371076
0000d0 85 f4 cd bc 67 99 86 bc 44 d9 9e b6 17 0e a7 3c
       -0.02514101 -0.01643057 -4.73406e-06 0.02039246
0000e0 e9 1d 14 3d 58 ce 9e bb c4 58 cd 3a be 71 66 3b
       0.036161337 -0.0048463754 0.0015666713 0.003516301
0000f0 4e 21 d7 bc fd cd 37 3c 64 53 67 bc 96 bd 1a bc
       -0.026260998 0.011218545 -0.014119003 -0.009444615

mlp_extractor.value_net.0.weight f4 [64, 20]
000000 95 f1 6e 3d 23 af 1c be 76 3f 8d 3c 48 74 28 3a
       0.05833586 -0.15301184 0.017242175 0.00064260187
000010 fa 83 c3 3d 61 0f 9e bd 8f c1 75 bd 20 5f 5c be
       0.09546657 -0.07717777 -0.059999045 -0.21520662
000020 ee dd 58 be 45 1c 05 3c d2 ec cb 3c 32 01 fc be
       -0.2117841 0.008124416 0.024893198 -0.49219662
000030 3f ff ae 3e 73 e2 22 be eb 3a 03 3e de e9 56 3d
       0.34179112 -0.15906696 0.12815444 0.052469127
000040 d3 04 4f be 6f d4 82 3c 7c 33 a6 3c 14 70 39 3e
       -0.20216684 0.015970437 0.020288222 0.1810916
000050 29 b9 ae 3c f6 f4 a4 bd f0 79 d8 bd d0 25 b2 bd
       0.021328526 -0.08054535 -0.10570133 -0.086986184
000060 33 9e 88 3e 17 77 75 3d 6b 3d eb 3d b3 c3 8b 3e
       0.26683196 0.059928026 0.11486324 0.27297744
000070 bd 53 24 3e e0 ce ac 3c e8 12 8a 3e 3e 64 ee bd
       0.16047569 0.02109474 0.2696755 -0.116402134
000080 db 20 b0 3e 35 18 81 3e 21 cc 38 be 5d 65 f7 3d
       0.34400067 0.2521378 -0.18046619 0.120798804
000090 90 87 e4 3d d0 dc c6 bd 8d 6c ec 3c ae 9f 9f 3d
       0.11158669 -0.097100854 0.028860355 0.07794128
0000a0 25 92 c9 3d 9f 10 8c 3d ba 6c 66 bc f3 65 fa bd
       0.09842328 0.06839108 -0.014064008 -0.122264765
0000b0 a1 88 c9 bd 33 dd ed 3d b9 4f 83 3c f7 c6 d6 3e
       -0.09840513 0.11614456 0.016029226 0.41948673
0000c0 de 25 6c be 0c 8a 9e 3d 92 3b 07 3e 5d 29 5b bc
       -0.2306132 0.07741174 0.13206318 -0.013376561
0000d0 9a 4e 89 bd b2 b6 76 3e b1 b3 9d 3e a5 13 95 3e
       -0.06704445 0.2409313 0.30801156 0.2911655
0000e0 ff b8 0d bd 2d 34 ec 3d 25 e1 fc bb bb 54 9e 3e
       -0.034600254 0.11533389 -0.007717269 0.3092402
0000f0 ed 64 a7 3d c4 ba c5 bd a2 e1 78 bd 7e 13 f7 bd
       0.08173547 -0.09654763 -0.060762055 -0.12064265
000100 a2 ae c5 bd c9 4d 00 be 03 7c 2a bd e3 4c 2e 3d
       -0.09652449 -0.12529673 -0.041622173 0.042553794
000110 80 46 3d bd 09 52 17 be d8 21 72 be ee 59 24 3e
       -0.046209812 -0.14777388 -0.23645723 0.1604993
000120 38 ab bd 3d 1a 2d 86 bd c4 75 31 3e 0d 76 ee bc
       0.09261173 -0.06551571 0.1733008 -0.029109025
000130 3b 98 b3 3e e2 66 51 3e b9 75 9a 3d 11 e2 0c be
       0.3507708 0.20449403 0.07541985 -0.13758112
000140 d3 bb 06 be 28 7d 3a bd 0e 3f 03 3e 02 41 4b 3e
       -0.13157587 -0.045529515 0.12817022 0.19849017
000150 9f 6f 1f be 3b 42 d4 3a 51 c5 f1 bd 69 93 5c 3c
       -0.15569924 0.0016194055 -0.11805213 0.01346288
000160 3f df 35 3e 0d 7a f3 bd 3c f7 63 be 8c 51 91 be
       0.17760943 -0.11888514 -0.22262281 -0.28382528
000170 b9 7c 70 3d a7 18 d3 be 05 01 96 3e a0 74 8b bd
       0.058712695 -0.41229746 0.29297653 -0.06809354
000180 c9 bf 92 bd 3e c0 1a 3d 0f 5b ed bd b3 20 e0 3d
       -0.07165486 0.037780993 -0.11589634 0.10943737
000190 b4 89 c8 3d 90 c1 33 bc 12 16 73 3a 8d ec 2f be
       0.0979189 -0.010971442 0.0009273003 -0.1718008
0001a0 23 82 25 3d 91 48 13 be b7 93 3f 3e 6d ed be be
       0.04040731 -0.1438315 0.18708692 -0.37290516
0001b0 1e 3a 42 be b8 c8 2e be d2 b7 8a be e4 ac c4 bd
       -0.18967482 -0.17068756 -0.2709337 -0.09603289
0001c0 5d 76 18 bd 58 64 fc be e4 12 1a be 06 d3 19 be
       -0.037222255 -0.49295306 -0.15046269 -0.15021905
0001d0 82 b9 02 bd bf 0e fb bd 58 51 2c bd ee 28 8e be
       -0.031915195 -0.12258672 -0.042069763 -0.27765602
0001e0 ee f5 05 be 93 62 46 3c ec 3c f6 ba 2f 05 26 3d
       -0.13082096 0.012108463 -0.0018786467 0.040532287
0001f0 5b 0f 59 bc 38 5d 2a 3e 69 8d 0f 3c 09 8a 1b 3d
       -0.01324829 0.16637123 0.008761742 0.037973437
000200 b6 64 ad 3d 5f 01 d8 3e a3 80 2a 3e 35 03 d8 bd
       0.08466475 0.42188546 0.16650634 -0.10547487
000210 a4 f7 26 be 6d f8 33 3e c6 ec 71 3e 4d e5 36 3e
       -0.16305405 0.17575236 0.23625478 0.17860909
000220 a3 b8 a2 3d 45 81 0c 3e 76 e9 3f 3e f9 91 b9 bc
       0.07945373 0.13721187 0.18741402 -0.022652613
000230 49 dc b9 bd 88 a3 54 3d b3 35 46 3d e2 91 e6 3d
       -0.09075219 0.051913768 0.048391055 0.11258294
000240 f3 93 67 3c 42 86 7f be 48 0a a5 be 8f 78 3f 3d
       0.014134395 -0.24953559 -0.32234406 0.046745833
000250 36 8d 49 be 87 cf 8d 3e 79 eb 44 be 77 c1 8f 3d
       -0.19682774 0.27697393 -0.1923045 0.07019322
000260 25 78 83 3c 83 20 10 bd 0b 8d d5 be 66 78 7c be
       0.0160485 -0.035187256 -0.4170917 -0.24655303
000270 8e 17 5f be 4e cd 11 be 63 70 b6 3c 13 17 d1 3d
       -0.21786329 -0.14238474 0.022270387 0.10209479
000280 24 3b 5f bc 1f 8a 1c be 91 3c 1b 3d 9e 24 63 bd
       -0.01362494 -0.15287064 0.037899558 -0.055454843
000290 e7 3f b0 bb cb 79 7e 3e cf c8 79 3e b8 c5 07 3d
       -0.0053787115 0.24851148 0.24393009 0.033147544
0002a0 b8 cf 22 be c0 52 24 be b2 08 f2 bd 5d 37 bf bd
       -0.15899551 -0.16047192 -0.11818065 -0.093367316
0002b0 df f8 38 be c3 92 28 3e 13 13 85 3d bc 10 81 3e
       -0.18063687 0.16462235 0.06497779 0.2520808
0002c0 47 69 32 3e 02 7d 15 bd 31 66 be bc 34 9e b1 3d
       0.17422973 -0.03649617 -0.023242088 0.08672753
0002d0 77 af 80 3d fe 6b 3f 3e ab 8b 39 3e 30 0e 61 3e
       0.06283467 0.1869354 0.18119685 0.21978068
0002e0 17 91 24 3e b8 1c b8 3e c9 93 0a be d5 ae 40 3e
       0.16070972 0.3595941 -0.13532938 0.18816693
0002f0 72 48 c1 bc de 0b b7 bc de 79 bf 3e 2c 74 63 3e
       -0.023594115 -0.022344526 0.37397665 0.22212285
000300 90 b2 68 bc 2d 7e 54 3e 72 5e dc bd ee 7c c5 bd
       -0.014202729 0.20751257 -0.107602015 -0.09642969
000310 04 21 db 3e 6e c0 8c bd 2e 6d e5 bd 79 ee 34 3d
       0.42798626 -0.068726406 -0.11202465 0.044172738
000320 8f 8f a9 be 53 13 02 3e bf 0c f8 3d 14 d0 36 bd
       -0.3311734 0.12702684 0.12111806 -0.044632033
000330 7b 41 23 3e 27 25 b2 3c 0b 0b 8e 3d 44 8c d8 be
       0.15942948 0.021746231 0.069357 -0.42294514
000340 86 6a 98 bc 66 c3 d0 3c 52 c2 8b 3b f9 0d 61 3e
       -0.018605482 0.025483798 0.004265108 0.21977986
000350 52 f2 9d 3d 96 b0 9d 3e 5a 10 71 3d 40 d4 54 3d
       0.077122346 0.30798787 0.058853485 0.05196023
000360 ec 5e 01 bd 3d 03 17 3e 82 b7 2c 3e 57 1c 7e 3e
       -0.031584665 0.14747329 0.16866878 0.24815498
000370 7a cf 34 3e e8 7f 36 be f8 f5 15 3e 02 ce 62 be
       0.17657271 -0.1782223 0.14644611 -0.22148898
000380 9d f9 81 ba c7 a6 01 3e 55 01 d1 3c 52 39 07 3d
       -0.000991631 0.12661277 0.02551333 0.03301365
000390 98 83 d0 3e 59 f0 d1 3e dd 8e 9c be 32 1e 80 3e
       0.40725398 0.41003683 -0.30577746 0.25023037
0003a0 07 12 7e bc 82 d5 b4 3e 4a f4 4d be b7 e9 f5 bc
       -0.015507228 0.35319144 -0.2011272 -0.03001867
0003b0 57 a9 8a 3e 8f 3f 85 3e 29 67 f5 3c 64 ea 96 3d
       0.2708232 0.26025054 0.029956417 0.07368925
0003c0 f4 99 24 be 1b d4 29 3d ad 4f f1 bd 6f fc 33 bd
       -0.16074353 0.041462045 -0.11782775 -0.04394191
0003d0 21 bc 43 3e 20 2d 2c 3e 26 e0 51 3e 96 e2 f1 3c
       0.19114734 0.16814089 0.20495662 0.02952699
0003e0 bf 9e 8c 3d 43 6a 88 be e4 bc 8b 3e 1c 00 37 3e
       0.06866216 -0.2664357 0.2729255 0.17871135
0003f0 80 31 c4 bd ed b6 c2 3e 62 0d 46 3e 8f 30 97 bd
       -0.09579754 0.38030186 0.19341043 -0.07382309

mlp_extractor.value_net.0.bias f4 [64]
000000 3b ad 0b be 87 16 0f 3e 5c 07 f5 3d 86 60 26 3d
       -0.13640301 0.13973437 0.11964294 0.040619396
000010 07 e6 d6 bd 56 73 3e be fe 7f ca 3d 6d 4c 29 be
       -0.10493093 -0.18598685 0.09887694 -0.1653306
000020 66 9a 9e 3d cf f6 e3 3d 8a 62 e8 3d 21 a0 f4 3d
       0.07744293 0.111310594 0.1134692 0.11944605
000030 c9 18 8d 3d 60 58 0a bd 59 47 9d bd ee ff 0b be
       0.06889493 -0.033775687 -0.07679624 -0.13671848
000040 03 7a 8e bc 26 0d 86 bc 12 b6 d1 bd a0 2b 0f 3e
       -0.017392164 -0.016363692 -0.10239805 0.13981485
000050 32 c8 da bd 09 8b e6 bd 4d 7f 21 be d1 d1 09 3e
       -0.106827155 -0.112569876 -0.15771218 0.13458945
000060 c0 7a 87 3d d7 9a 03 3e a8 ae c3 3c e1 3f 77 3d
       0.066152096 0.12852035 0.023886994 0.060363654
000070 b8 0b f7 bd 59 99 46 be 56 75 01 3d 97 66 1c 3e
       -0.12062782 -0.19394435 0.03160604 0.1527351
000080 6e b6 c4 bd 9a c9 99 bd 6d b0 9a bd 8a b1 99 3b
       -0.09605108 -0.075091556 -0.07553182 0.0046903538
000090 c9 ec 06 3e 0d 2c 14 3e 8a 63 73 bd f5 0f 29 be
       0.13176264 0.14469929 -0.0594211 -0.16509993
0000a0 17 7b f7 bd 1e 36 01 be 92 8a a9 bd c5 2e 02 3e
       -0.120840244 -0.126183 -0.08278383 0.12713154
0000b0 0c 83 e7 3d e5 19 1e be 37 2c 25 3e cc ed 83 3d
       0.11304292 -0.15439565 0.16130148 0.064418405
0000c0 ef cb 05 bd 7b de 08 be 7e 12 f0 bd 5c 77 26 3e
       -0.03266519 -0.1336612 -0.11722277 0.1625647
0000d0 d5 31 1d be 72 ae cc bd da 8f ff bd 7e 88 9e 3d
       -0.1535104 -0.0999421 -0.124786094 0.077408776
0000e0 e6 e5 26 3e d3 be fb bd b4 42 08 be 32 7e e5 bd
       0.16298637 -0.12292256 -0.13306695 -0.112057105
0000f0 d3 bc 92 bd 37 d2 b2 3d cd ca c5 3d 31 17 fc bd
       -0.071649216 0.087315015 0.09657822 -0.12309111

mlp_extractor.value_net.2.weight f4 [64, 64]
000000 b4 65 ad 3e ce 18 c0 be 6d 54 05 bf 79 86 a6 3c
       0.33866656 -0.37518924 -0.5208195 0.020327793
000010 81 54 04 3e 56 7d f7 bd 46 52 07 3d 9d 2a db 3c
       0.1292286 -0.12084453 0.033037446 0.026753718
000020 36 97 3e 3e 3f af e3 bd 54 9c 15 bd 34 e2 77 be
       0.1861237 -0.1111741 -0.03652604 -0.24207383
000030 b7 4c d8 3d e8 54 b0 3d 0f 96 a3 3b 06 77 cd bd
       0.10561507 0.086099446 0.0049922536 -0.100324675
000040 3f 61 5f 3e 06 2c 90 3e d5 ac 83 bd 34 69 68 be
       0.2181444 0.28158587 -0.064294495 -0.22696382
000050 a8 6e 09 3f 3f 59 4e 3e da c2 93 3e ed a0 80 be
       0.53684473 0.20151232 0.28859597 -0.25122777
000060 c4 0a 1d bc f9 80 12 3e fa 01 c0 be 8d fe 66 be
       -0.009585086 0.14307012 -0.37501508 -0.22558041
000070 72 7e 2d 3e 66 bc 0f 3e 77 06 a3 be 36 a0 d5 bd
       0.16942766 0.14036712 -0.3184087 -0.104309484
000080 91 e9 e3 bb ee 6e 14 3e ca fb 34 3e 89 6d 26 3d
       -0.0069553335 0.14495441 0.17674175 0.040631805
000090 dc f2 78 bd a7 51 5c 3d df a1 82 3d 13 7a 43 3e
       -0.060778484 0.053788807 0.06378531 0.19089536
0000a0 8d bc 16 3e 6f 29 61 be a6 38 d6 3e 9c 18 bd bd
       0.14720364 -0.21988462 0.41840094 -0.092332095
0000b0 37 77 1f 3e c3 59 ac 3e 40 1e 24 3e 47 53 04 be
       0.1557282 0.33662233 0.16027164 -0.12922393
0000c0 1f 88 99 3e 61 75 2d 3c 1f c5 3d 3e 9f f0 8a be
       0.29986665 0.010587067 0.18532227 -0.27136704
0000d0 0c 7d fa 3d d5 eb 72 3e 40 b0 22 3e 23 67 88 be
       0.12230882 0.23722775 0.15887547 -0.26641187
0000e0 b0 00 0e bf 7d 9d 6c 3e 55 9f 0e 3e 42 a3 52 3e
       -0.554698 0.23106952 0.13927968 0.2057009
0000f0 c9 22 7c 3e ab d1 b6 3d 4d 3e 02 be 6c 6a 49 3e
       0.24622644 0.0892671 -0.12719078 0.19669503
000100 cb 11 93 be 39 00 8e 3e a2 6d 8a 3e f5 91 e4 3d
       -0.28724512 0.27734545 0.27036768 0.111606516
000110 4f 75 3a be 6e 0b 0e be 15 3d a8 3d ad 96 68 be
       -0.18208812 -0.13871548 0.082147755 -0.22713728
000120 e1 a9 24 3e 85 c6 d0 3e 86 66 88 3d e1 9b 6b 3e
       0.16080429 0.40776458 0.0666018 0.23008682
000130 06 99 23 bc 75 fe fd bd 03 e4 98 bd 7c 75 3b 3d
       -0.009985214 -0.124020495 -0.07465365 0.04576634
000140 b8 d4 62 be 33 b9 54 bd 26 b9 04 be 80 32 bd 3d
       -0.22151458 -0.051934432 -0.12961254 0.09238148
000150 ab 1c c8 3d 3c 62 18 be 3a b6 59 be a6 1a 01 3e
       0.09771093 -0.14881223 -0.2126092 0.12607822
000160 59 1d 2d 3e 0d c5 5f be b8 75 0a 3f 40 a7 18 3f
       0.16905726 -0.21852513 0.54085875 0.59630203
000170 f2 87 0e 3e 72 3a ef be 69 8c 2b be a0 9e a5 3d
       0.13919047 -0.46724278 -0.16752781 0.08086896
000180 a7 ac c2 be a7 c1 a1 be de f0 5e be ac 18 73 3d
       -0.38022348 -0.31593058 -0.21771571 0.0593497
000190 42 48 84 3e 01 53 e5 3e 75 a8 67 3e 1d 03 b8 bd
       0.25836378 0.4478989 0.22622855 -0.08984969
0001a0 32 72 fb 3d 49 f9 a8 be c5 44 f0 bd 67 8e 02 3e
       0.122776404 -0.3300269 -0.11731867 0.12749635
0001b0 0b 3b ef 3c 2a 3d 5e be ee 86 62 3e ab c4 3f 3e
       0.029202959 -0.2170302 0.22121784 0.18727367
0001c0 74 f4 5d be 18 10 e4 bd a4 42 51 be 44 6f a1 3e
       -0.21675283 -0.11135882 -0.20435578 0.315302
0001d0 6c 6c f8 bd a0 4e 2c be f3 cb ff 3d d5 ec d8 3c
       -0.12130055 -0.16826868 0.12490072 0.026480118
0001e0 06 9f 8b 3e 53 dc 22 bd ff 89 6d bd 15 f3 ff bc
       0.27269763 -0.0397609 -0.05799293 -0.03124384
0001f0 a2 b4 22 3e d9 32 cd 3e 49 ec 6c be ae 20 54 3c
       0.15889218 0.40077856 -0.2313701 0.012947245
000200 8b 2d 59 bd c5 64 54 3e fd 58 f9 3e 6a ed a7 bd
       -0.05302195 0.20741566 0.48700705 -0.0819958
000210 6c aa a8 bd 59 c4 a2 bd a9 d8 28 3e 05 3c 12 3c
       -0.082356304 -0.079476066 0.164889 0.008925443
000220 d9 fa 35 3e d7 8d 0b 3e fb 6e 18 3e 0e 58 c8 3d
       0.17771472 0.13628326 0.14886086 0.0978242
000230 30 81 99 3e 81 ef a0 be 2b 50 23 be 96 46 c1 bc
       0.29981375 -0.31432727 -0.1594855 -0.023593228
000240 fb 7a 47 bc 99 d3 7b 3d ce cb 8b be 82 2f 99 3e
       -0.012175317 0.061481092 -0.27303928 0.29919058
000250 34 79 e7 bd 71 67 41 be 70 8c 8b bb 30 cd 04 3f
       -0.113024145 -0.18887116 -0.004258685 0.5187559
000260 95 09 be 3e 04 de 73 3e a0 0f 57 3e cc af 73 3e
       0.37116686 0.23815161 0.21002054 0.2379753
000270 f6 40 80 bd e9 15 8b 3e db ad 91 3e 47 05 31 3e
       -0.0626239 0.27165154 0.28452954 0.1728717
000280 43 ff 9e be b1 83 33 be 02 2d 80 3e a1 a3 56 3c
       -0.31054124 -0.17530705 0.25034338 0.013100536
000290 e8 8f 4e bd f8 71 d6 3e 7e 98 4b 3d 77 9a a7 be
       -0.05043021 0.41883826 0.049705975 -0.32735035
0002a0 0a 81 57 be 5d 70 75 3d 74 e5 56 be 06 ca ad 3d
       -0.21045318 0.05992161 -0.20985967 0.084857985
0002b0 95 59 af bd 72 e5 15 3d ed f2 cd 3e ac be bb bd
       -0.08562008 0.03659577 0.402244 -0.09167227
0002c0 47 ae 6b be 35 c4 a1 bc eb 53 fc be 6a 25 2c 3e
       -0.230157 -0.01974688 -0.49282774 0.16811147
0002d0 57 c0 d5 3d 92 8a 9c be b0 11 c6 be e1 dd 17 3e
       0.104370765 -0.3057447 -0.3868537 0.14830734
0002e0 05 63 1f 3e 5b d4 f0 3d f1 d8 0d be c2 6b 03 be
       0.15565117 0.117592536 -0.13852288 -0.12834075
0002f0 87 64 6d be 78 fd 8f 3d 64 cd b7 be b8 bd 00 be
       -0.2318288 0.07030767 -0.35898888 -0.12572372
000300 dd bd 96 3e 22 c3 e5 bd 7c 65 52 3d 33 4b 2c 3e
       0.2944173 -0.11218859 0.051366314 0.16825561
000310 f7 39 06 3e 71 62 97 3e 9c b7 95 bd ac bc 17 bd
       0.1310805 0.29567292 -0.07310411 -0.037045166
000320 fd f8 ce bd c7 0d 4c be 78 99 aa bd 42 40 ad be
       -0.101060845 -0.1992713 -0.08330053 -0.33838087
000330 3c 92 a2 be 64 7c a9 3d 68 b9 05 3e c5 75 27 3d
       -0.31752193 0.08275679 0.13059008 0.0408838
000340 d9 4d 76 3d 80 41 59 3e a0 aa 16 be 9e 5d 2e be
       0.060132835 0.21216393 -0.14713526 -0.170279
000350 6a 4f 2b 3c 03 20 29 3e 66 a1 41 3e 86 2c a1 bd
       0.0104559455 0.16516118 0.18909225 -0.0786982
000360 bc af 4b be 76 db ee bd 78 02 64 be 6a ce fa be
       -0.19891256 -0.116629526 -0.22266567 -0.48985606
000370 ef 7d bf bd a6 c9 4a 3e 25 c4 2c be 78 b2 cb be
       -0.09350192 0.19803485 -0.16871698 -0.39784598
000380 47 1e cf 3d bc 63 94 3e 4e e0 dc 3d 9a 49 0d be
       0.10113197 0.2898234 0.1078497 -0.13797608
000390 4d 1d 7b 3e 0a 1a ac bd 8a ac aa 3c 68 53 35 3e
       0.24522896 -0.08403404 0.020834226 0.17707598
0003a0 3c f4 6e 3e b7 2e 04 be 2f b6 58 3e b5 f7 37 bd
       0.23335356 -0.12908445 0.21163248 -0.044913966
0003b0 21 17 99 be 8c 36 12 3c 94 58 32 be d2 cb 6d be
       -0.29900458 0.008924138 -0.17416602 -0.23222283
0003c0 4f b8 4e be e8 fa d7 bd e8 45 1e 3f 30 37 9b bc
       -0.20187496 -0.105459034 0.6182542 -0.018947214
0003d0 a9 f6 9e 3e a5 af cb 3e f2 21 60 bd c9 37 ef bb
       0.31047562 0.39782444 -0.054719873 -0.0073003513
0003e0 cb fb 49 be 19 f4 c8 bb ea 22 4e 3e dd cd d6 3e
       -0.19724958 -0.0061326143 0.20130506 0.41953936
0003f0 f7 c1 3d bd 1c 1b c4 3d d2 92 8e be e8 02 8d 3e
       -0.046327557 0.09575483 -0.2784639 0.2754128

mlp_extractor.value_net.2.bias f4 [64]
000000 36 04 da bd 51 1e 25 3e e8 f8 f4 3d ef 64 33 be
       -0.106453344 0.16124846 0.119615376 -0.17518972
000010 98 89 20 3e 5d cf 12 3e 35 99 19 3e a9 05 28 be
       0.15677488 0.14336915 0.1499985 -0.16408409
000020 c2 d2 03 3e 48 35 1e 3e 9d 2f 0b 3e 20 aa 44 3e
       0.12873366 0.15450013 0.13592382 0.19205523
000030 29 af 13 be 8a d1 12 3e d3 d1 c1 bd b6 38 e4 3d
       -0.14422287 0.14337745 -0.09463849 0.11143629
000040 3d 15 15 3e d7 57 0e 3e ec 2f 02 be a9 24 d5 bd
       0.14558883 0.13900696 -0.12713593 -0.10407383
000050 95 17 1b be 0d 15 14 be e3 bb 0b be e1 79 ea 3d
       -0.15145715 -0.14461155 -0.13645892 0.11449028
000060 09 23 0e 3e b3 93 fe 3d ef ae 4f 3e f3 ef fa bd
       0.13880552 0.12430515 0.20281576 -0.12252798
000070 11 ba 17 3e 00 0e cb bd 4e ed ff 3d e9 52 00 3e
       0.14817072 -0.0991478 0.12496434 0.12531628
000080 7c 3a 0d 3e 55 1b 01 3e 36 03 ed bd c3 3a 29 be
       0.13791841 0.12608083 -0.11572878 -0.16526322
000090 6f 5e 02 be 83 3e e2 bd e4 e9 13 3e 7c 28 1a be
       -0.12731336 -0.110470794 0.14444691 -0.15054506
0000a0 04 4c 33 be 91 0d cc 3d bb 34 08 3e 00 04 1c be
       -0.17509466 0.09963525 0.13301365 -0.15235901
0000b0 ee 5d 15 be 92 af e9 bd 77 fa da 3d 0e 46 0a 3e
       -0.14586613 -0.114104405 0.10692304 0.13503286
0000c0 d9 31 f2 bd 7d 84 1a be ee 67 1e 3e b0 2c 03 3e
       -0.11825914 -0.15089603 0.15469334 0.12810016
0000d0 fc 69 1e 3e 8d e4 04 3e d1 af 3b 3e 8d 75 12 3e
       0.15470117 0.1297781 0.18328787 0.14302655
0000e0 af 30 e1 3d 43 b4 2f be 2d 1f b9 bd 6b 2b fd bd
       0.10995614 -0.17158608 -0.090391494 -0.12361797
0000f0 20 a4 16 be 3e 2c 0f be b0 59 0e be 63 e2 08 be
       -0.14711046 -0.13981721 -0.139014 -0.1336761

action_net.weight f4 [6, 64]
000000 c9 b2 99 3c 0f e3 34 bc 89 ab 31 bc 8c 18 aa bd
       0.01876201 -0.011040463 -0.01084412 -0.08305463
000010 71 45 ac bd d5 59 82 3d 07 b4 06 be dd e8 8e bc
       -0.084116824 0.0636479 -0.13154612 -0.017445022
000020 ca 45 a9 39 33 29 8d bd b9 cd 19 bd 45 33 04 3c
       0.0003228619 -0.06892624 -0.037549708 0.008068864
000030 ba 6c 73 bd 52 e9 cc 3b 32 79 c1 bc bc d4 67 bc
       -0.05942986 0.0062534 -0.02361736 -0.014149841
000040 84 ca c0 bc 34 bd 63 bd 39 80 bb 3a be 0f c4 bb
       -0.023534067 -0.05560036 0.0014305181 -0.005983322
000050 a3 29 44 3d 63 23 19 3d 29 5a cb bc ee 3a 20 bd
       0.04789127 0.037387263 -0.024823265 -0.0391187
000060 37 15 ab 3c b2 01 0d bd 42 87 ca bc 36 38 a3 bb
       0.02088414 -0.034425445 -0.0247227 -0.004981066
000070 c3 05 6b 3d ca 91 50 3b 1c 20 f5 bc f6 52 4a bc
       0.05737854 0.0031825178 -0.029922538 -0.012348881
000080 e7 86 a9 3c 39 17 ca bc c8 78 4d bd 66 38 04 bc
       0.02069421 -0.024669277 -0.050164014 -0.008070087
000090 fe 24 21 3c 81 a2 33 bd 98 6d 0c bd 5a ee e5 bc
       0.00983548 -0.043856148 -0.034284204 -0.028067756
0000a0 aa ee 7e bc 83 48 65 bc 4d d0 18 3c 97 bf 0a 3e
       -0.015559832 -0.013994339 0.0093270065 0.13549648
0000b0 c8 d8 e5 bc df cd 84 bb fe 83 85 bd 39 1e 29 3d
       -0.02805747 -0.004052862 -0.06519316 0.04128859
0000c0 ee 9d 06 3c 1a 6b 90 bc 21 53 c8 3c 4f 5c 4f bc
       0.008216364 -0.017629195 0.024453701 -0.012656285
0000d0 e4 51 12 bd 38 52 2c 3c aa 04 e5 bc a2 05 c1 3c
       -0.03572263 0.010517649 -0.027956326 0.023562256
0000e0 d9 7e fc bb ad aa 43 3d 30 a8 81 3c d6 e0 34 3c
       -0.007705551 0.04777019 0.015827268 0.011039933
0000f0 52 53 49 bc 56 08 d6 3a 12 ba 87 bd a3 25 80 bd
       -0.0122879315 0.0016329389 -0.06627287 -0.06257179
000100 e1 b0 5c 3c 04 8e a7 3c 09 29 88 3d cc a0 a1 bc
       0.013469906 0.02045346 0.06648452 -0.019729994
000110 36 6f 8d 3c 5c fe 07 bc 4c 61 9b 3d f2 a1 88 3c
       0.017264944 -0.00830039 0.07586917 0.016678784
000120 fb 98 cb 3b ac bb 30 bd 08 0a ad 3d 4d 5d 80 3c
       0.006213305 -0.043147728 0.08449179 0.01566949
000130 57 6f 48 3c 13 eb 4c 3c b8 09 46 bc b6 ef 8f bc
       0.012233577 0.012507218 -0.012087278 -0.017570358
000140 41 53 98 3c 02 ba 65 3c 9d 67 92 3d 5a a1 e1 3c
       0.018594386 0.0140213985 0.07148669 0.027542759
000150 4a 86 80 3b d1 cb 73 3d 3d 19 f1 bc 1f 2b 48 bd
       0.0039222585 0.059520546 -0.02943098 -0.04886925
000160 b0 77 98 bc 56 4e 8a bc e8 9b 80 3c 2e 88 ce 3c
       -0.018611759 -0.016883057 0.015699342 0.02521142
000170 a2 fa 24 ba 8d f5 15 bd d1 05 a2 bb 43 25 86 3b
       -0.0006293451 -0.03661113 -0.004944541 0.0040937974
000180 3d e2 2a 3c 8f ff 08 3d 06 91 71 bd 73 3c b6 3c
       0.010429916 0.033446845 -0.058976196 0.022245621
000190 d5 ce af 3c 3b 6b 02 ba 6b b6 9a b9 6e 4c c4 3a
       0.02146093 -0.0004975085 -0.0002950908 0.0014976391
0001a0 f5 49 3b bc 6d 11 aa 3c a1 db 83 3c 5b 53 51 3d
       -0.011431207 0.020760262 0.016095938 0.051104885
0001b0 eb 3a c3 bc 09 9a 4a bd 49 9b 6c 3c a5 c4 b2 bc
       -0.023831805 -0.049463306 0.01444132 -0.021822283
0001c0 22 2e dd bb 8e 22 17 bb 93 86 20 bd ff 39 f0 3c
       -0.006749884 -0.0023061368 -0.03919084 0.02932453
0001d0 f3 96 fa 3c 8d f6 59 bc 5f ca 55 bc ce 76 15 3d
       0.030589556 -0.013303411 -0.013048737 0.036490254
0001e0 8f a6 54 3c 2b 87 82 bd c9 2c 00 3c ec 1c 4f bc
       0.012979164 -0.063734375 0.007823178 -0.012641173
0001f0 1a d9 ed 3b b5 17 23 3c 74 27 84 bd 02 a5 5c 3a
       0.0072585465 0.009954383 -0.064528376 0.0008416922
000200 ff 1c de 3b b3 bb 2a 3c 4f df 3b bd 64 c6 82 bd
       0.006778359 0.010420728 -0.04586726 -0.06385496
000210 21 84 36 bc a8 39 0a bd f5 6c bb bc 08 9d 1d 3b
       -0.0111399 -0.03374639 -0.022879103 0.0024049897
000220 0d 59 6b bc f9 2d cb bc ff 70 dc 3c c9 be 75 3d
       -0.014364493 -0.024802195 0.02690935 0.0599964
000230 c0 60 d1 3d fb c1 55 b8 5f c2 55 3b 7f ca e6 ba
       0.10223532 -5.0963816e-05 0.0032617075 -0.0017607956
000240 72 95 42 3c 9f 0d a4 bb b6 76 f2 3a a2 0c c0 3a
       0.011876451 -0.0050065066 0.0018498513 0.0014652202
000250 28 f6 8c 3b 6b 74 85 3c 89 73 cf bc 82 c3 a0 bc
       0.004301805 0.016290864 -0.025323646 -0.019624475
000260 92 fc b5 3c 14 9a a8 3c b4 93 3b 3d 3a b8 b0 b9
       0.022215161 0.020581283 0.045795158 -0.00033706595
000270 02 ea d9 3c 5a 72 04 3b 7d 98 04 3d 09 cf 40 bb
       0.026600841 0.002020976 0.032371987 -0.0029420278
000280 ca f9 e3 3c b7 09 25 bd 80 fe 2f bd c3 15 76 3c
       0.02782907 -0.040292468 -0.04296732 0.015019837
000290 c1 63 9e 3a 24 61 2d bd 36 24 06 3b 48 1e 8f 3c
       0.0012084172 -0.04232897 0.002046836 0.017470494
0002a0 b7 67 0f 3d 47 67 99 3c 00 f8 69 3d ea 8b 73 bb
       0.03501102 0.018726004 0.057121277 -0.0037162253
0002b0 54 63 8a bc 6f f0 0a ba 72 f7 fe 3c 3b e8 1b 3a
       -0.016893066 -0.00053001096 0.03112385 0.0005947386
0002c0 5a 9d 67 ba dd 7e 12 3d 78 16 13 3b 43 06 0a bc
       -0.0008835398 0.035765518 0.0022443812 -0.0084243445
0002d0 43 41 d6 3c af df 0f bc 78 d7 e9 bc 94 d6 3d 3c
       0.026154166 -0.008781358 -0.028545126 0.011586804
0002e0 0d df c4 bb d7 85 26 bd 95 86 02 3d 62 ee 43 b9
       -0.006008035 -0.040654983 0.03186663 -0.00018685454
0002f0 5d f0 cb bb 29 08 18 bc 5d 29 36 bb 12 57 c0 3c
       -0.006223722 -0.009279289 -0.002779565 0.023479018
000300 59 7e 07 3c 25 32 06 ba da f2 70 bb f0 a1 ef bc
       0.00826987 -0.00051191665 -0.0036765845 -0.029252023
000310 1a 39 34 3d 7d 33 1f bd 25 29 98 3c d9 9e 8c 3c
       0.04399977 -0.038867462 0.018574307 0.017165588
000320 7d bc ad 3c db 96 90 bd 1e 8c c8 ba b0 82 59 bb
       0.021208042 -0.070600234 -0.0015300547 -0.0033189468
000330 c7 05 aa bd 6a 19 10 bc 80 6a 8f 38 c2 73 c8 3b
       -0.08301883 -0.008795122 6.8386085e-05 0.006117315
000340 ca 12 18 bc 28 9f f9 3b a1 b7 a2 3c 76 77 3c bc
       -0.009281823 0.00761785 0.019862952 -0.011503091
000350 26 94 0b bd 1f de 38 bc 33 26 98 bc 08 8f 50 bd
       -0.034076832 -0.011283427 -0.018572902 -0.050917655
000360 7b 48 6c bc 04 10 55 bd ff ad 62 3c 02 be ed ba
       -0.014421578 -0.052017227 0.013835429 -0.0018138292
000370 8c d8 63 bc f9 7b 9c bc 2c 42 80 3b 21 f6 0b 3c
       -0.013906609 -0.019102084 0.0039141383 0.008542568
000380 aa 09 f4 3c 2a 6d da 3a 77 37 9b bd d2 6c 97 3b
       0.029789764 0.0016664614 -0.075789385 0.0046211267
000390 17 f4 18 bc b6 e6 26 bd b5 c2 c0 3c 8b 53 ca 3c
       -0.009335539 -0.040747367 0.023530344 0.02469804
0003a0 60 ed da bb be 1c c5 bb 4a 2c 53 3d 85 b3 a5 bd
       -0.0066811293 -0.006015389 0.05155591 -0.08090881
0003b0 bf b9 d5 bc f1 1a 39 bc d6 fb 34 bd 8a 24 82 3b
       -0.026089547 -0.011297927 -0.044185482 0.003971641
0003c0 fc 7c b1 bb 1a 18 84 3b 74 d9 b0 bc b9 1a f6 3c
       -0.0054165106 0.0040311934 -0.021588065 0.03004204
0003d0 3a a0 f4 3c 33 d0 c7 3b 64 ac 34 3c 7e cb 31 bc
       0.029861558 0.0060978173 0.011027429 -0.010851739
0003e0 82 a1 dd 3a 72 f1 62 bd 26 01 27 3d e0 b5 d5 bc
       0.0016909095 -0.05540604 0.04077258 -0.026087701
0003f0 c5 78 50 3b 62 45 4d 3c 21 8a 2a bc 06 6c b7 3c
       0.0031810266 0.012528749 -0.010408909 0.022390377

action_net.bias f4 [6]
000000 99 13 68 3d d5 4b c2 3c 6a c0 bb 3a f4 41 b0 3b
       0.056659315 0.0237178 0.0014324312 0.005378956
000010 1a 74 56 3c 4f fe 51 3d
       0.013089204 0.05126792

value_net.weight f4 [1, 64]
000000 29 d3 96 41 6f 2c 95 c1 2f 43 95 c1 e4 35 95 41
       18.853106 -18.646696 -18.657804 18.651314
000010 04 10 95 c1 7e e7 95 c1 d6 0c 95 c1 c9 8e 95 41
       -18.63282 -18.738033 -18.631268 18.69472
000020 39 64 96 c1 b1 26 95 c1 26 84 95 c1 af 36 95 c1
       -18.798937 -18.643892 -18.689526 -18.651701
000030 d2 75 95 41 3b eb 95 c1 0a 7a 95 41 9f f6 94 c1
       18.68253 -18.739859 18.68459 -18.62042
000040 4b e0 94 c1 de 87 95 c1 78 88 95 41 9b d2 96 41
       -18.609518 -18.691341 18.691635 18.852835
000050 24 ee 94 41 a7 65 95 41 56 91 94 41 cb f6 95 c1
       18.61628 18.674635 18.570965 -18.745504
000060 10 98 94 c1 97 64 96 c1 de fe 94 c1 49 16 97 41
       -18.57425 -18.799116 -18.624447 18.885881
000070 55 a8 94 c1 be cc 95 41 8c c7 95 c1 ae 58 95 c1
       -18.582193 18.724972 -18.722435 -18.6683
000080 04 67 96 c1 a7 bc 95 c1 aa 8f 95 41 a2 29 95 41
       -18.8003 -18.717115 18.695148 18.645329
000090 ba d6 95 41 2a ea 95 41 e8 1d 96 c1 cd fd 94 41
       18.729847 18.739338 -18.764603 18.623926
0000a0 44 ee 96 41 86 6f 94 c1 2e ae 94 c1 b5 11 95 41
       18.86634 -18.554455 -18.585049 18.633646
0000b0 f3 87 95 41 73 b9 94 41 fa 21 95 c1 4d ee 95 c1
       18.691381 18.590551 -18.64159 -18.741358
0000c0 57 20 96 41 28 d3 94 41 5e 55 95 c1 c3 2f 96 c1
       18.76579 18.603104 -18.666683 -18.773321
0000d0 a4 c2 94 c1 9c cb 95 c1 0f fe 94 c1 dc 28 95 c1
       -18.59504 -18.724419 -18.624052 -18.64495
0000e0 fc bf 95 c1 ad 26 95 41 57 2b 96 41 1e da 94 41
       -18.718742 18.643885 18.771162 18.606503
0000f0 00 d2 95 41 72 7b 95 41 dd 6e 94 41 45 6f 95 41
       18.72754 18.685276 18.554132 18.67933
